bmi_model.pt (torch, 2545 bytes, 3 tensors)

fc1.weight f4 [10, 3]
0	0x3d9d18f8	0.07670778
1	0x3d9b8850	0.07594359
2	0xbea51834	-0.32245028
3	0x3d005ab0	0.031336486
4	0xbe69d82a	-0.22836366
5	0xbe97a809	-0.29620388
6	0x3eca9ef2	0.3957439
7	0x3e070304	0.13184744
8	0xbea72e1c	-0.32652366
9	0x3df95d50	0.12176001
10	0xbe8d9c93	-0.2765852
11	0x3f007f2f	0.50194067
12	0x3f057674	0.5213387
13	0xbe72ee70	-0.23723769
14	0xbee0621c	-0.43824852
15	0x3f0b64fc	0.54450965
16	0x3ebad34c	0.36489332
17	0xbf12eb57	-0.5739035
18	0x3ef5f394	0.48037398
19	0x3ee5018c	0.44727743
20	0x3e792591	0.24330737
21	0xbf0cb7d4	-0.54968
22	0xbece40b3	-0.40283737
23	0x3f0c2090	0.54737186
24	0x3e22c4d4	0.15895396
25	0x3c831c00	0.016004562
26	0xbe9d1109	-0.3067706
27	0xbec48f0c	-0.38390386
28	0x3e80f84b	0.25189433
29	0x3e88c1c6	0.26710337

fc1.bias f4 [10]
0	0x3f0eafea	0.55737174
1	0x3ba94c80	0.00516659
2	0x3f047d48	0.51753664
3	0x3e960420	0.29300022
4	0xbe753394	-0.23945457
5	0x3edf3a80	0.4359932
6	0xbbebea5a	-0.0071995677
7	0x3f05093b	0.5196721
8	0xbc0eabc0	-0.008707941
9	0xbd01d5bf	-0.031697985

fc2.weight f4 [1, 10]
0	0xbe62499e	-0.22098395
1	0xbc821d20	-0.015883029
2	0xbe2c04c6	-0.16798696
3	0x3e6ed17f	0.23322104
4	0xbd7f9f88	-0.062408
5	0xbea093bb	-0.3136271
6	0x3dbb11ab	0.09134229
7	0xbe377b83	-0.1791821
8	0xbe93743d	-0.2879962
9	0x3e38f9ec	0.18064088
